trained_model/checkpoint.pth.tar (torch_old, 589763 bytes, 8 tensors)

conv1.weight f4 [16, 1, 5, 5]
-0.07121318 -0.06467288 -0.19830294 -0.061152678 -0.18932055 -0.062926136 0.036079794 0.056360696
0.043773342 -0.11473654 0.0937003 -0.054347012 -0.21472566 0.057054836 -0.0008243614 0.022199834
-0.09362231 -0.1559191 -0.025944661 0.09459104 0.13835745 -0.023735749 -0.14443667 -0.020541707
0.063807726 0.01671119 -0.17696247 0.1598472 0.12234941 -0.15603407 -0.043733384 0.014278216
-0.1739734 -0.019268878 -0.17553642 0.08350842 -0.055076655 -0.16854247 -0.07301574 -0.0399854
-0.16992499 -0.17369843 0.12602486 -0.13059495 -0.025374252 -0.045775212 -0.069201834 0.09839127
0.07481978 0.052757066 0.0046480102 0.01846423 -0.053475782 0.027640296 -0.18354356 0.07779577
-0.016630532 0.021554582 -0.07609942 0.07058589 0.010783913 -0.04186095 0.07826293 -0.17148262
-0.0885827 0.07412788 0.007360862 0.07947868 0.0064165345 0.060080107 0.010897525 -0.017858429
0.029562874 -0.046464626 -0.059349425 -0.048147205 -0.01634217 0.008634494 0.008638891 -0.050063547
0.110263035 -0.024048897 0.07037249 -0.051518068 0.09761753 -0.10701481 0.01185963 -0.045398675
0.09689978 0.054056995 0.053118598 0.14032702 -0.060375158 0.1357898 -0.14182943 -0.24058677
-0.043902416 -0.1949326 -0.21901841 -0.101965785 0.09448578 0.04307689 -0.10604347 -0.11082799
0.10127003 -0.07048344 -0.107482955 -0.17308305 0.011289505 -0.0087835435 0.10361333 -0.13522771
-0.081790164 0.015040519 -0.17678435 0.04351006 -0.14108305 -0.06015516 0.11315391 -0.0062871175
-0.1346777 0.06736675 0.023058204 -0.16159983 -0.12824444 0.10664935 0.09235836 0.067633145
-0.022585684 -0.1853226 -0.03802132 -0.17600167 -0.18447988 -0.07829315 0.12719893 -0.030350033
0.038694225 0.076444425 -0.04600884 -0.094969206 -0.0971645 -0.21943462 0.0015800885 0.0016850018
0.10593396 -0.06998602 -0.13062364 0.06914322 -0.07042824 0.051348593 -0.065426566 0.0946845
-0.16783017 -0.17154315 0.08631435 0.010107048 -0.18270728 -0.17996645 -0.09258472 0.020452417
-0.22974022 0.11341745 -0.18613182 -0.14478457 0.12722933 0.04061081 0.013727453 0.024089936
0.051211935 -0.12484564 0.06392689 -0.13612844 0.053605463 -0.09545753 0.16185518 0.14218423
-0.03408627 0.0916952 0.058814216 -0.11356592 -0.17381829 -0.16421819 0.03396765 -0.003386725
-0.13207202 -0.07140017 0.07360271 -0.13927084 -0.17783368 0.0034814235 0.073110245 0.07810483
-0.17563997 0.049238965 0.09383996 -0.20767869 0.014907865 -0.14018604 -0.09124344 -0.016410895
-0.09392094 -0.10015286 0.13740362 -0.08312938 -0.14774865 -0.1747259 -0.12261437 -0.10837832
-0.13929813 -0.0546766 0.10515589 -0.09048901 -0.009312445 -0.0394658 -0.011426003 0.14302146
0.074222624 -0.050909847 0.09445883 -0.12697287 -0.047703966 0.068028755 -0.040255107 0.083601244
-0.025480762 -0.14717895 -0.16442534 0.026799452 0.12866406 0.0679382 0.07919359 0.002305344
-0.0990033 -0.16536392 0.028871378 -0.06440305 -0.010721897 -0.04062967 0.09006463 0.12267549
-0.20500208 0.06262604 -0.2113453 -0.117549405 -0.058380604 0.0914128 0.012430518 0.007863232
-0.14816561 -0.08952277 0.053636927 0.11900325 0.16918574 -0.06978662 0.08327945 -0.12253946
00000000: 37d8 91bd 3773 84bd ed0f 4bbe 3b7b 7abd
00000010: 3fdd 41be 6bdf 80bd 68c8 133d 79da 663d
00000020: ad4b 333d fefa eabd f1e5 bf3d f99a 5ebd
00000030: 0be1 5bbe 55b2 693d f519 58ba 6ddc b53c
00000040: 0ebd bfbd 42a9 1fbe e689 d4bc f2b8 c13d
00000050: 93ad 0d3e 7971 c2bc 35e7 13be 1547 a8bc
00000060: a0ad 823d e8e5 883c a635 35be fcae 233e
00000070: 5492 fa3d 65c7 1fbe c721 33bd 2eef 693c
00000080: 1526 32be c4d9 9dbc d2bf 33be 7606 ab3d
00000090: 0f98 61bd 6696 2cbe 4789 95bd bbc7 23bd
000000a0: d100 2ebe 00de 31be a90c 013e afba 05be
000000b0: aadd cfbc ca7e 3bbd b1b9 8dbd 5d81 c93d
000000c0: 1d3b 993d cb17 583d 564e 983b 4c42 973c
000000d0: 6c09 5bbd e76d e23c d8f2 3bbe 6353 9f3d
000000e0: c13c 88bc 3c93 b03c 03da 9bbd 568f 903d
000000f0: 02af 303c 6376 2bbd 5148 a03d 2499 2fbe
00000100: d96a b5bd 5cd0 973d 6333 f13b b8c5 a23d
00000110: cb41 d23b 8f16 763d 888b 323c d74b 92bc
00000120: d72d f23c b151 3ebd 6218 73bd 0136 45bd
00000130: 04e0 85bc b177 0d3c 238a 0d3c 6f0f 4dbd
00000140: 96d1 e13d 3102 c5bc 741f 903d 9c04 53bd
00000150: b3eb c73d 952a dbbd e54e 423c f6f3 39bd
00000160: 6473 c63d de6a 5d3d e392 593d e3b1 0f3e
00000170: f14b 77bd 7b0c 0b3e bc3b 11be 615c 76be
00000180: 05d3 33bd 699c 47be 5d46 60be 70d3 d0bd
00000190: c381 c13d 6571 303d 522d d9bd c9f9 e2bd
000001a0: a966 cf3d 9f59 90bd 0620 dcbd af3c 31be
000001b0: 9ef7 383c dae8 0fbc 3a33 d43d 2279 0abe
000001c0: 9a81 a7bd 826c 763c f506 35be 9b37 323d
000001d0: 1378 10be 4265 76bd 3dbd e73d 2a04 cebb
000001e0: f3e8 09be 94f7 893d 8fe4 bc3c 6d7a 25be
000001f0: 8352 03be f96a da3d 6126 bd3d 3f83 8a3d
00000200: 9d05 b9bc 35c5 3dbe 3ebc 1bbd c839 34be
00000210: 4be8 3cbe 2958 a0bd 7040 023e a2a0 f8bc
00000220: d67d 1e3d e58e 9c3d c473 3cbd 377f c2bd
00000230: 2efe c6bd 78b3 60be f91a cf3a 47db dc3a
00000240: e7f3 d83d d554 8fbd 34c2 05be f69a 8d3d
00000250: ae3c 90bd e752 523d 5dfe 85bd f2e9 c13d
00000260: acdb 2bbe 02a9 2fbe 94c5 b03d 0898 253c
00000270: 9e17 3bbe 2049 38be 0f9d bdbd d48b a73c
00000280: 0541 6bbe 6847 e83d 5799 3ebe 6842 14be
00000290: 6848 023e 8557 263d 1ce9 603c 4258 c53c
000002a0: 9bc3 513d 12af ffbd 1aec 823d 4165 0bbe
000002b0: 6791 5b3d 3d7f c3bd 5dbd 253e be98 113e
000002c0: 0b9e 0bbd b1ca bb3d 2de7 703d 4095 e8bd
000002d0: 6cfd 31be d028 28be aa21 0b3d d1f3 5dbb
000002e0: e33d 07be 413a 92bd 05bd 963d 049d 0ebe
000002f0: 081a 36be 9828 643b d3ba 953d 6df5 9f3d
00000300: f7da 33be ccae 493d 2a2f c03d b9a9 54be
00000310: 1e40 743c ee8c 0fbe d7dd babd 2470 86bc
00000320: 9f59 c0bd f11c cdbd 89b3 0c3e bd3f aabd
00000330: 6c4b 17be 59eb 32be 3e1d fbbd 74f5 ddbd
00000340: 2ba4 0ebe 92f4 5fbd f95b d73d 4d52 b9bd
00000350: 3a93 18bc e4a6 21bd 2134 3bbc 3874 123e
00000360: 0802 983d d886 50bd a273 c13d 2d05 02be
00000370: 3c65 43bd a952 8b3d 8ae2 24bd 2137 ab3d
00000380: 08bd d0bc 14b6 16be 1e5f 28be 868a db3c
00000390: 83c0 033e 2f23 8b3d 4030 a23d 4115 173b
000003a0: 3ec2 cabd 2955 29be ab83 ec3c bfe5 83bd
000003b0: e5aa 2fbc 4c6b 26bd ce73 b83d 4a3d fb3d
000003c0: 11ec 51be 1542 803d e76a 58be bebd f0bd
000003d0: 8020 6fbd a236 bb3d 5fa9 4b3c c9d4 003c
000003e0: bab8 17be b757 b7bd 65b2 5b3d fab7 f33d
000003f0: 073f 2d3e 4aec 8ebd 6b8e aa3d f8f5 fabd

conv1.bias f4 [16]
-0.034110464 0.120661035 -0.056717772 -0.035256293 -0.16072825 0.0307429 -0.12496565 0.17490938
-0.1714875 0.00789793 -0.12268777 -0.149448 -0.05434631 0.043265875 0.036955334 0.051950715
00000000: 6ab7 0bbd 221d f73d e550 68bd e768 10bd
00000010: f295 24be 89d8 fb3c feed ffbd 721b 333e
00000020: 6b9a 2fbe 5266 013c ba43 fbbd e608 19be
00000030: 3d9a 5ebd 8f37 313d 7a5e 173d 46ca 543d

conv2.weight f4 [32, 16, 5, 5]
0.0052777324 0.019432506 0.010798463 -0.027154138 0.0026531545 -0.022694204 -0.028232545 0.00093969924
-0.02146116 0.013051466 -0.05507645 -0.019280024 -0.048680462 0.008789856 0.010277706 0.011905946
-0.009852753 0.023809979 0.01031596 0.0011908236 0.043703914 -0.0058428543 0.010932659 -0.007307914
0.06790732 -0.0060793264 -0.004563142 -0.011462271 -0.02562839 0.00226603 -0.019132134 0.023741813
-0.04333029 -0.042177457 0.0075109964 -0.0064373724 0.030960873 -0.031849924 -0.046183914 0.027037973
-0.04372631 0.00083103863 0.015532325 -0.022025218 0.003916136 0.0364587 -0.011100845 0.016656578
0.012871296 -0.040188417 -0.02390842 -0.03739662 0.008503379 0.06620109 -0.050612852 -0.01574682
0.019067904 0.044661727 0.041155126 -0.058856644 -0.009717128 -0.019304996 0.022137571 -0.027782066
-0.010531225 0.03892933 0.038163304 -0.018828787 -0.043510485 -0.06003867 0.026919447 -0.0034768945
-0.030598955 -0.024952317 0.009377871 -0.046725307 0.02642965 -0.019131945 0.019453278 0.0141443685
-0.021227797 -0.023873487 0.024521297 0.0034441557 -0.027760547 -0.036019605 -0.028981207 0.043222446
-0.049083076 -0.043472875 -0.0053113815 -0.025470473 0.019020913 0.017511183 0.010905485 -0.014166736
-0.008355324 -0.00214822 0.0033491142 -0.024376547 0.026708316 -0.019095538 0.053836923 0.04661272
0.048479013 0.010098926 -0.003015596 0.009758941 0.023812413 0.03236422 -0.037271127 -0.007278041
0.048144862 -0.032188784 -0.04776995 -0.031007864 0.039171908 -0.029736135 0.035569698 0.0003463736
0.043146074 -0.0060665435 0.02926536 0.011537238 -0.045110036 0.0013200952 0.009605642 -0.028306501
-0.007408702 -0.008735572 0.03373986 -0.041076187 -0.028611248 -0.0070295557 0.014004175 -0.020699764
0.017535554 0.06548359 -0.0079467995 -0.04733768 0.024699368 0.016239861 -0.029772397 0.010655513
0.040084787 -0.012430252 0.0004435132 -0.04366471 -0.027525209 -0.023161655 -0.014513738 0.0016593783
-0.011673662 0.0013763228 0.00036086547 -0.00597681 -0.009574022 -0.033570386 -0.033007246 0.03560421
0.013887965 -0.007827994 0.0048128595 -0.035212085 -0.034856133 -0.0058422093 0.022136997 -0.02761342
0.037952706 -0.019005988 -0.025875535 -0.01047989 -0.008547772 -0.020367064 -0.038179286 0.011921387
-0.023968372 0.029697785 0.0004965305 0.001796597 0.039530236 0.031401146 0.042726513 0.044820074
-0.01891401 -0.0137987025 -0.043021996 -0.012867409 0.017672373 0.034967545 0.038549773 0.02867971
0.00081781636 0.0003257044 -0.013459865 0.008609401 -0.03222748 0.0059694564 -0.019776829 0.041390415
-0.038405254 0.010741585 0.007931465 -0.029621642 -0.032728244 -0.05306551 -0.032465216 -0.0031582457
-0.052106094 -0.03320203 -0.02804915 -0.030869925 -0.033478297 -0.05137218 -0.021800373 -0.027226774
0.02333314 0.008559908 -0.003978231 -0.01739108 0.030171992 0.025725728 0.015233752 -0.025804698
0.019222477 -0.035378613 -0.03880305 0.03734031 -0.043496124 0.025193913 -0.048630282 -0.051260583
-0.030915892 -0.02563809 -0.009289767 -0.03300666 -0.021919573 -0.010151238 0.041057505 -0.030966396
-0.001053443 0.021247433 -0.045376595 0.03102528 -0.0027335305 0.017053427 0.015998792 0.015421501
-0.009802583 -0.049463145 -0.033583615 -0.01537243 -0.01592854 -0.021108959 0.014577679 -0.050261423
00000000: d4f0 ac3b eb30 9f3c 09ec 303c 5b72 debc
00000010: 8ce0 2d3b 32e9 b9bc f047 e7bc 2656 763a
00000020: 51cf afbc d1d5 553c d897 61bd 24f1 9dbc
00000030: 2a65 47bd 5403 103c d363 283c 2811 433c
00000040: 716d 21bc 250d c33c 4604 293c 6915 9c3a
00000050: e002 333d 6a75 bfbb e51e 333c 3a77 efbb
00000060: fe12 8b3d 1635 c7bb 6986 95bb 40cc 3bbc
00000070: a1f2 d1bc ad81 143b feba 9cbc 317e c23c
00000080: 1a7b 31bd 45c2 2cbd ce1e f63b 98f0 d2bb
00000090: a8a1 fd3c 1175 02bd 582b 3dbd bd7e dd3c
000000a0: 5c1a 33bd 0fda 593a 4b7b 7e3c 3b6e b4bc
000000b0: ee52 803b b855 153d 52e0 35bc 6073 883c
000000c0: 21e2 523c 9c9c 24bd 97db c3bc 332d 19bd
000000d0: c251 0b3c 7094 873d 6c4f 4fbd 7aff 80bc
000000e0: 4b34 9c3c 37ef 363d 4792 283d aa13 71bd
000000f0: 9734 1fbc 8325 9ebc da59 b53c 3797 e3bc
00000100: 298b 2cbc 5c74 1f3d 2051 1c3d d43e 9abc
00000110: 0d38 32bd 1ceb 75bd 2c86 dc3c 9cdc 63bb
00000120: a9aa fabc cd68 ccbc a4a5 193c 0963 3fbd
00000130: fe82 d83c 99ba 9cbc 7b5c 9f3c c8bd 673c
00000140: ebe5 adbc 5592 c3bc e3e0 c83c 58b7 613b
00000150: 166a e3bc 4b89 13bd ff69 edbc 050a 313d
00000160: 560b 49bd 9d10 32bd 190b aebb 74a7 d0bc
00000170: bfd1 9b3c 9d73 8f3c ebac 323c 991b 68bc
00000180: c5e4 08bc 27c9 0cbb d07c 5b3b 53b1 c7bc
00000190: 66cb da3c 3f6e 9cbc 1b84 5c3d fbec 3e3d
000001a0: ee91 463d f775 253c 4ea1 45bb f7e3 1f3c
000001b0: 4012 c33c 5890 043d 9ca9 18bd a27c eebb
000001c0: 8c33 453d 63d8 03bd 6caa 43bd 3404 febc
000001d0: b972 203d 3299 f3bc 88b1 113d 7a99 b539
000001e0: f0b9 303d dbc9 c6bb e9bd ef3c af06 3d3c
000001f0: 4dc5 38bd 0b07 ad3a fc60 1d3c 09e3 e7bc
00000200: b2c4 f2bb a51f 0fbc cf32 0a3d 813f 28bd
00000210: 2362 eabc 3058 e6bb c471 653c 8d92 a9bc
00000220: b9a6 8f3c 431c 863d 4b33 02bc 28e5 41bd
00000230: 5456 ca3c 7509 853c 3ee5 f3bc 7694 2e3c
00000240: f22f 243d 41a8 4bbc 5687 e839 c4d9 32bd
00000250: 8c7c e1bc 83bd bdbc 08cb 6dbc 7f7f d93a
00000260: e342 3fbc bb65 b43a 8b32 bd39 1ed9 c3bb
00000270: 5cdc 1cbc 1a81 09bd 9b32 07bd b8d5 113d
00000280: 598a 633c fd40 00bc 31b5 9d3b 8c3a 10bd
00000290: 4ec5 0ebd 0170 bfbb a658 b53c 8a35 e2bc
000002a0: 4c74 1b3d 72b2 9bbc eef8 d3bc d8b3 2bbc
000002b0: f40b 0cbc d4d8 a6bc e261 1cbd ec51 433c
000002c0: 5259 c4bc c548 f33c 9929 023a cb7b eb3a
000002d0: 75ea 213d 7d9e 003d ff01 2f3d 4195 373d
000002e0: 8ef1 9abc f413 62bc d537 30bd d3d1 52bc
000002f0: a7c5 903c 213a 0f3d 5ee6 1d3d b6f1 ea3c
00000300: ba62 563a 4ec3 aa39 c486 5cbc 720e 0d3c
00000310: f600 04bd 6e9b c33b 0403 a2bc ff88 293d
00000320: d44e 1dbd 79fd 2f3c faf2 013c 16a9 f2bc
00000330: 0d0e 06bd 385b 59bd 3ffa 04bd 92fa 4ebb
00000340: 336d 55bd dafe 07bd 55c7 e5bc ede2 fcbc
00000350: 8a20 09bd a36b 52bd b296 b2bc af0a dfbc
00000360: 2425 bf3c db3e 0c3c d25b 82bb bd77 8ebc
00000370: 412b f73c c3be d23c fd96 793c 6064 d3bc
00000380: 7578 9d3c 2ae9 10bd f2ef 1ebd 27f2 183d
00000390: fe28 32bd 7763 ce3c 8c30 47bd 9ef6 51bd
000003a0: 5343 fdbc f906 d2bc 1b34 18bc fe31 07bd
000003b0: ad90 b3bc 6151 26bc ea2b 283d 3dad fdbc
000003c0: ae13 8aba 190f ae3c cfdc 39bd ba28 fe3c
000003d0: 0825 33bb a1b3 8b3c e60f 833c 77aa 7c3c
000003e0: 039b 20bc de99 4abd f98e 09bd a5dc 7bbc
000003f0: 927c 82bc b2ec acbc 38d7 6e3c ecde 4dbd

conv2.bias f4 [32]
0.025098795 0.018654365 -0.00779398 -0.017205795 -0.02810925 -0.04835742 0.008354206 0.015011295
0.0007781219 0.044763915 -0.052061584 0.0050226497 -0.0014349539 -0.04273791 0.041591536 -0.023318863
0.03576001 -0.0133847045 -0.04686143 -0.03230463 -0.008891305 -0.038074784 0.03578848 0.0071429578
-0.010639381 -0.0029336745 -0.0002534747 -0.030716278 0.014903307 -0.03953871 -0.009355289 0.035908964
00000000: fd9b cd3c 0ad1 983c a564 ffbb 2bf3 8cbc
00000010: 5f45 e6bc 6e12 46bd 14e0 083c eff1 753c
00000020: e0fa 4b3a 5e5a 373d 873e 55bd 0a95 a43b
00000030: 1015 bcba f20d 2fbd e35b 2a3d 3307 bfbc
00000040: 1779 123d 854b 5bbc c5f1 3fbd dc51 04bd
00000050: d6ac 11bc 4ef4 1bbd f196 123d 790f ea3b
00000060: cc50 2ebc e442 40bb cce4 84b9 b4a0 fbbc
00000070: 002d 743c 58f3 21bd ed46 19bc 4715 133d

fc1.weight f4 [256, 512]
-0.033535194 0.017680466 -0.03708152 0.015922029 0.010079236 -0.035828732 -0.032758113 -0.009864018
0.04235312 -0.0040423004 -0.03644226 -0.0037407938 0.0139845 -0.027612058 -0.020097483 0.01335914
-0.030759411 0.011197953 0.017566156 0.018391127 0.037331462 0.04063634 -0.03219409 -0.040089473
0.015809432 -0.008253339 -0.02009784 -0.025815424 0.0045517255 0.005727799 -0.029882224 -0.039866548
-0.01862312 -0.03299608 -0.022814725 0.034562316 -0.0120755015 0.025172755 0.0010440921 -0.02930735
-0.022831671 -0.0046474417 -0.010146172 -0.0044596978 -0.033075027 -0.03982467 -0.0025768662 -0.0009237963
0.023791768 -0.014671134 -0.018728495 -0.023843732 -0.044121373 -0.018929662 -0.0030961863 -0.028175201
-0.018652603 0.010602471 0.008775761 -0.030021848 0.028154317 0.015594189 0.028231433 0.011028844
0.026432047 0.018692229 0.025388628 0.010547311 0.017549802 0.032081768 0.010434446 0.043081816
-0.04120441 -0.031463817 -0.005452474 0.020602012 0.035401274 0.007252745 0.009504519 0.037675105
-0.013026026 -0.03484824 0.046520587 -0.03421082 -0.036583744 0.010143769 -0.017894138 0.0010923843
-0.041843254 0.014886722 0.01277389 0.039927047 -0.0058153914 -0.027953941 -0.038654566 -0.037256736
0.01116654 0.044554234 -0.03462869 -0.028635446 0.0131489085 -0.0026258584 0.020182813 0.024813917
-0.026314743 -0.013551166 -0.040986188 0.005734222 0.041626398 0.0012130728 -0.023261143 0.019577838
-0.011358283 0.022222178 0.029221633 -0.0053108386 0.032761324 -0.006714797 -0.016971132 0.01375377
0.013008475 -0.015348999 -0.013019722 0.032440197 -0.03836052 -0.032651424 -0.048691228 -0.026512094
0.0015848355 -0.0023730344 0.023883732 -0.03245653 -0.00078915525 0.0019014861 0.023477878 -0.009680367
-0.04478267 -0.03076772 -0.044830523 -0.0036884684 0.023039572 0.0058623417 0.0067236605 0.007519904
0.031173263 0.04255635 -0.009974105 0.024211692 0.007991831 0.016571257 -0.0038325218 -0.010297797
0.01692044 -0.018865295 0.018710809 -0.013826869 0.031159738 0.036378358 -0.041905824 -0.042496912
0.015923359 -0.0006577381 -0.017154291 -0.016302094 0.019377515 0.026400859 0.02405206 -0.021099774
-0.017733732 -0.016738588 0.000783986 -0.026985303 -0.03566772 -0.043374788 0.02620182 -0.000471342
0.0388085 -0.035462823 0.042160343 0.020392975 0.03512611 0.039759144 -0.03334847 0.0035732207
-0.0258667 -0.033837095 0.04203328 0.03568316 0.030732814 -0.027911695 -0.012415845 0.0390105
0.025145989 -0.032266974 -0.04445064 -0.03037131 0.015288591 0.031216277 0.041128755 0.035189353
0.008972497 -0.020456899 -0.006388257 0.013319084 0.0069897706 0.017416136 0.0075115273 0.009380403
-0.022486266 -0.034993295 0.025491506 0.033335313 0.037155133 -0.02600147 0.0067614047 -0.0082559455
0.009861912 0.026105989 0.029560694 0.003564306 -0.0062237647 -0.03205345 0.007918923 0.011864289
0.0018490278 0.006784815 -0.025747549 0.023268433 -0.025920976 -0.008833039 -0.012271921 -0.0047132103
0.054647326 0.026477586 -0.020141713 0.037867725 0.009373111 0.018417658 0.006402618 0.0056258948
-0.04449909 -0.02265523 0.04120451 -0.013215707 0.014839477 -0.012705079 0.04475358 0.014288536
0.004465706 -0.026403977 0.032187372 0.022145249 0.025969472 0.013679814 0.041977156 0.023922736
00000000: 335c 09bd a0d6 903c cbe2 17bd ea6e 823c
00000010: 6123 253c 26c1 12bd 5f2d 06bd b19c 21bc
00000020: 777a 2d3d 4675 84bb 7b44 15bd 1b28 75bb
00000030: 3f1f 653c af32 e2bc 7aa3 a4bc 4be0 5a3c
00000040: 29fb fbbc 9e77 373c e6e6 8f3c fda8 963c
00000050: e0e8 183d 4a72 263d f3dd 03bd dc34 24bd
00000060: c882 813c 0339 07bc 3aa4 a4bc de7a d3bc
00000070: a426 953b 43b0 bb3b 91cb f4bc 1b4b 23bd
00000080: 838f 98bc e626 07bd f2e5 babc 3791 0d3d
00000090: 53d8 45bc 1837 ce3c ebd9 883a f815 f0bc
000000a0: 7c09 bbbc 9149 98bb 213c 26bc a822 92bb
000000b0: ae79 07bd 311f 23bd a4e0 28bb ec2a 72ba
000000c0: f4e6 c23c 325f 70bc 806c 99bc ee53 c3bc
000000d0: 9db8 34bd 6112 9bbc 63e9 4abb aecf e6bc
000000e0: 58cd 98bc fdb5 2d3c 36c8 0f3c 61f0 f5bc
000000f0: e2a3 e63c c57e 7f3c 9b45 e73c 53b2 343c
00000100: 0588 d83c 7220 993c d0fb cf3c a1ce 2c3c
00000110: 9ac4 8f3c 2c68 033d 3df5 2a3c 8f76 303d
00000120: f5c5 28bd 34e0 00bd abaa b2bb 8dc5 a83c
00000130: ed00 113d 6fa8 ed3b d8b8 1b3c 3651 1a3d
00000140: 1d6b 55bc 07bd 0ebd 5f8c 3e3d a520 0cbd
00000150: d6d8 15bd 0d32 263c ba96 92bc 562e 8f3a
00000160: d563 2bbd 70e7 733c 9449 513c 8b8a 233d
00000170: 0a8f bebb aaff e4bc 4054 1ebd 859a 18bd
00000180: ddf3 363c 807e 363d d0d6 0dbd e294 eabc
00000190: 856e 573c 9816 2cbb 6d56 a53c 8e46 cb3c
000001a0: 0492 d7bc b605 5ebc 22e1 27bd 24e6 bb3b
000001b0: 7180 2a3d f8ff 9e3a 278e bebc b461 a03c
000001c0: 1818 3abc 490b b63c 3562 ef3c 8b06 aebb
000001d0: bd30 063d cd07 dcbb 0b07 8bbc 7e57 613c
000001e0: 8021 553c 5e7a 7bbc ac50 55bc 03e0 043d
000001f0: ec1f 1dbd 80bd 05bd 7470 47bd e42f d9bc
00000200: 41ba cf3a e984 1bbb d1a7 c33c 23f1 04bd
00000210: 50df 4eba 493b f93a ae54 c03c 679a 1ebc
00000220: 086e 37bd 960c fcbc 36a0 37bd 3bba 71bb
00000230: 7cbd bc3c e318 c03b 2752 dc3b 8769 f63b
00000240: 125f ff3c 914f 2e3d 6e6a 23bc 9957 c63c
00000250: 2bf0 023c 72c0 873c 0c2b 7bbb 17b8 28bc
00000260: bc9c 8a3c 648b 9abc 6947 993c 188a 62bc
00000270: b542 ff3c 7901 153d 71a5 2bbd 3e11 2ebd
00000280: b471 823c 0f6c 2cba 2887 8cbc f88b 85bc
00000290: 98bd 9e3c 9d46 d83c d308 c53c 6fd9 acbc
000002a0: 5546 91bc 5d1f 89bc 6984 4d3a 4810 ddbc
000002b0: 5118 12bd c3a9 31bd 33a5 d63c 741e f7b9
000002c0: a9f5 1e3d 7741 11bd 53b0 2c3d 2b0f a73c
000002d0: 65e0 0f3d 7cda 223d 6898 08bd b22c 6a3b
000002e0: 67e6 d3bc c498 0abd 172b 2c3d 8128 123d
000002f0: 62c3 fb3c 11a7 e4bc d46b 4bbc 79c9 1f3d
00000300: f6fe cd3c 602a 04bd e011 36bd 41cd f8bc
00000310: 007d 7a3c 47b9 ff3c a076 283d b622 103d
00000320: 6101 133c 3a95 a7bc 9554 d1bb 4a38 5a3c
00000330: 720a e53b 49ac 8e3c 4223 f63b 43b0 193c
00000340: 1e35 b8bc 2155 0fbd 90d3 d03c 9c8a 083d
00000350: fb2f 183d 0901 d5bc c68e dd3b f243 07bc
00000360: db93 213c 3adc d53c 4529 f23c 2297 693b
00000370: b9f0 cbbb 7a4a 03bd 5fbe 013c 6f62 423c
00000380: 145b f23a 2753 de3b 86ec d2bc 719d be3c
00000390: 3a58 d4bc 73b8 10bc 2b10 49bc 4671 9abb
000003a0: e0d5 5f3d 86e7 d83c 3c00 a5bc 301b 1b3d
000003b0: ad91 193c a1e0 963c 0dcd d13b 6d59 b83b
000003c0: ae44 36bd 7697 b9bc 0fc6 283d b186 58bc
000003d0: 4721 733c f728 50bc 884f 373d 771a 6a3c
000003e0: 0f55 923b 274d d8bc e8d6 033d f469 b53c
000003f0: eebd d43c 4c21 603c 3df0 2b3d 9df9 c33c

fc1.bias f4 [256]
0.03688601 -0.022970486 -0.007744765 -0.024194902 -0.018894827 0.039087396 0.03374867 0.031559505
0.0052801576 0.031196944 0.033938635 -0.011407921 0.007925259 0.01949055 0.009699341 -0.019223617
-0.0010842904 -0.03607085 0.035107464 -0.0338054 -0.019759065 0.017503073 -0.0028427423 0.0064963554
0.010027727 -0.02954858 -0.03416206 -7.295609e-05 -0.020352181 0.034725636 -0.039844412 -0.024665345
-0.0125349965 0.008718148 -0.036400557 0.033746637 -0.02966189 0.009355764 -0.018141108 0.03293261
0.015428174 -0.0029806744 -0.00441424 -0.04054944 0.038684864 -0.005167268 -0.02956787 0.0034783469
-0.030671645 0.0097346455 0.011655435 0.021859584 -0.008133359 -0.03856286 0.023827488 -0.016137358
-0.025589596 -0.025127644 0.0071539986 -0.030283432 -0.03283553 0.005465607 -0.0041168653 0.0294982
-0.032487076 0.004361746 0.031273663 0.010378267 -0.0034711387 0.031332877 0.0018958049 0.00021461703
-0.04040732 -0.011718728 -0.010065229 0.03513115 -0.019810855 -0.015868112 -0.04363789 0.03873321
0.034563586 0.035666134 0.041038122 0.021297626 -0.036981393 -0.013923556 0.040292695 -0.037971403
0.024674619 0.023702806 0.00037370028 0.020381505 0.019000545 0.019066164 0.013378878 -0.014750061
-0.005100702 -0.015923345 0.026807936 0.042756252 -0.034944285 0.025239967 0.035152383 -0.032841142
0.037254803 0.027446523 -0.031555098 0.018190145 -0.040888548 -0.0101451855 -0.031865705 0.012109881
0.037361108 -0.021567475 -0.0117240045 0.009827342 -0.04203512 -0.006293759 0.014741891 0.014838439
0.039628543 0.037185922 -0.010317743 0.010424519 0.025451798 -0.042426437 -0.0427409 -0.017264877
0.022911338 0.037732374 0.0340078 0.007332994 0.036292154 -0.0313873 0.036823675 0.007546486
0.012762167 0.023571627 0.008329291 0.040637385 -0.01746932 0.010052295 0.013543564 0.018854503
0.03029256 0.027706949 -0.037338972 -0.0087978365 0.012305119 -0.043781012 0.03454718 0.019804837
-0.037378874 0.04219123 0.034921143 -0.0016017358 -0.022338867 -0.025923923 0.0010897017 0.028993346
-0.0013986762 0.03307832 0.034371078 0.009998481 -0.004431344 0.0072276453 0.029918538 0.009242401
-0.005327209 -0.019317886 0.02980624 0.030475585 -0.020727305 0.011673836 -0.040534675 -0.01827324
0.017659778 -0.009378116 -0.01667477 -0.0052984506 0.03712883 -0.030918006 -0.028652342 0.03476799
0.0007753376 -0.029877784 0.032960653 0.017318012 0.022250645 0.020809244 -0.027014999 -0.016556801
0.04400792 0.02316531 -0.0036845992 0.019611722 0.009499675 0.04107476 -0.0040887096 0.044751268
0.03417309 0.0042362344 -0.024159037 0.029047988 0.0344601 -0.00032530696 -0.008471746 0.0050252248
-0.010997556 0.02507306 0.02857538 0.03162007 -0.039423175 0.003377462 -0.018829823 0.035238877
-0.043555975 0.042009104 0.016587548 0.005915842 0.032893974 0.0013690569 0.0057692756 -0.02711776
0.038132854 0.043114513 -0.04012534 0.03656664 -0.012663265 0.012056259 0.014068981 0.020458937
0.04024406 0.03652049 0.03842883 -0.008191628 -0.04103771 0.010799024 0.03152178 0.037026435
-0.027742833 0.03626782 0.007700101 0.008000595 -0.02131869 0.03855649 -0.0024738337 0.011712837
-0.008296289 0.006940063 -0.032941584 0.01536473 0.035629816 0.026561549 -0.007038592 -0.018226612
00000000: c915 173d 9a2c bcbc ccc7 fdbb 6334 c6bc
00000010: 53c9 9abc 1b1a 203d 0c3c 0a3d 8a44 013d
00000020: 2c05 ad3b bc90 ff3c 3d03 0b3d 4ae8 3abc
00000030: f2d8 013c a5aa 9f3c fce9 1e3c d97a 9dbc
00000040: c01e 8eba 07bf 13bd d8cc 0f3d 8877 0abd
00000050: c3dd a1bc 9b62 8f3c 4d4d 3abb 61df d43b
00000060: 564b 243c dd0f f2bc 84ed 0bbd 0100 99b8
00000070: 9eb9 a6bc 783c 0e3d e533 23bd fa0e cabc
00000080: 965f 4dbc 90d6 0e3c c018 15bd ea39 0a3d
00000090: 7efd f2bc eb48 193c a99c 94bc 58e4 063d
000000a0: 74c6 7c3c 6b57 43bb 54a5 90bb 2b17 26bd
000000b0: 0574 1e3d 3052 a9bb 5138 f2bc faf4 633b
000000c0: 1a43 fbbc 107e 1f3c 70f6 3e3c df12 b33c
000000d0: c841 05bc 17f4 1dbd dd31 c33c 7e32 84bc
000000e0: 46a1 d1bc 7dd8 cdbc 176c ea3b f614 f8bc
000000f0: 8c7e 06bd d618 b33b c5e6 86bb 36a6 f13c
00000100: 2b11 05bd faec 8e3b d018 003d 9b09 2a3c
00000110: 0b7c 63bb e756 003d a87c f83a d20a 6139
00000120: 2582 25bd e8ff 3fbc a1e8 24bc aee5 0f3d
00000130: 604a a2bc d8fd 81bc a5bd 32bd b7a6 1e3d
00000140: 8c92 0d3d a716 123d 9717 283d 5c78 ae3c
00000150: cd79 17bd a01f 64bc f409 253d e787 1bbd
00000160: 6d22 ca3c 632c c23c 34ed c339 1df7 a63c
00000170: 08a7 9b3c a530 9c3c 1533 5b3c 3daa 71bc
00000180: ca23 a7bb ad71 82bc 519c db3c 2e21 2f3d
00000190: bd21 0fbd 0cc4 ce3c f2fb 0f3d 6f84 06bd
000001a0: 7e98 183d 88d7 e03c eb3f 01bd 8003 953c
000001b0: c07a 27bd fe37 26bc 9d85 02bd 8668 463c
000001c0: f607 193d 46ae b0bc 0a16 40bc dc02 213c
000001d0: 052d 2cbd e13b cebb f987 713c ed1c 733c
000001e0: 8a51 223d 4450 183d c00b 29bc 9acb 2a3c
000001f0: 4a80 d03c 58c7 2dbd 1511 2fbd 126f 8dbc
00000200: 8fb0 bb3c 438d 1a3d c34b 0b3d 9d49 f03b
00000210: 15a7 143d f88f 00bd 6cd4 163d 8348 f73b
00000220: 6818 513c 4919 c13c 9477 083c 6373 263d
00000230: d21b 8fbc 62b2 243c d3e5 5d3c c274 9a3c
00000240: 1a28 f83c aff9 e23c c0f0 18bd cd24 10bc
00000250: 699b 493c b853 33bd 5881 0d3d c13d a23c
00000260: 971a 19bd b6d0 2c3d 7909 0f3d 56f1 d1ba
00000270: 0000 b7bc 685e d4bc 52d4 8e3a 7483 ed3c
00000280: c953 b7ba 227d 073d b0c8 0c3d abd0 233c
00000290: cf34 91bb e2d5 ec3b b917 f53c 716d 173c
000002a0: de8f aebb 8b40 9ebc 372c f43c efa7 f93c
000002b0: 4fcc a9bc 9e43 3f3c b007 26bd c3b1 95bc
000002c0: 3dab 903c aba6 19bc 8799 88bc a09e adbb
000002d0: 6614 183d c247 fdbc 51b8 eabc e168 0e3d
000002e0: 0740 4b3a 41c2 f4bc c001 073d 81de 8d3c
000002f0: fc46 b63c 2678 aa3c 8f4e ddbc 21a2 87bc
00000300: a641 343d 2dc5 bd3c 5179 71bb c3a8 a03c
00000310: 86a4 1b3c 023e 283d 95fa 85bb 1b4d 373d
00000320: 15f9 0b3d 1cd0 8a3b 2ce9 c5bc 0cf6 ed3c
00000330: 0926 0d3d f68d aab9 14cd 0abc a4aa a43b
00000340: 182f 34bc 0566 cd3c ea16 ea3c 0c84 013d
00000350: 327a 21bd 6958 5d3b 0041 9abc a456 103d
00000360: c067 32bd bd11 2c3d 9ce2 873c aed9 c13b
00000370: d5bb 063d ed71 b33a 310c bd3b 1126 debc
00000380: 3231 1c3d d898 303d 785a 24bd e7c6 153d
00000390: 9579 4fbc 9e87 453c 9581 663c 8099 a73c
000003a0: f5d6 243d 8296 153d 8d67 1d3d 2e36 06bc
000003b0: 2817 28bd 64ee 303c fb1c 013d 08a9 173d
000003c0: f044 e3bc 918d 143d 2151 fc3b ed14 033c
000003d0: 89a4 aebc 69ed 1d3d 0b20 22bb 33e7 3f3c
000003e0: 28ed 07bc 7869 e33b c1ed 06bd 59bc 7b3c
000003f0: 92f0 113d 9b97 d93c fda3 e6bb fa4f 95bc

fc2.weight f4 [10, 256]
-0.016443273 0.018331597 0.010505457 0.026508989 -0.0505113 -0.03278385 -0.014500913 0.042528536
0.033750415 -0.061626032 0.008773621 0.04996769 0.0260659 0.0015451309 0.030963475 -0.051579386
0.046162665 -0.034353994 -0.010964621 0.034915827 -0.021621117 0.024589771 0.0052935765 -0.028586378
-0.04564584 -0.06841601 0.011020007 0.038124718 -0.053395707 -0.02865997 0.008146145 -0.047690593
0.013379045 -0.020568557 0.040167622 0.008936109 0.015533463 0.054216024 0.012911822 -0.043594256
-0.00031275887 -0.03418358 -0.029821718 0.06928987 0.036820963 -0.0674423 -0.00070209964 -0.050845362
0.06510584 0.0065928423 -0.03398432 0.022784913 -0.022543814 -0.02280017 -0.049079277 -0.009721097
-0.009557088 -0.039377257 -0.040186457 0.056191456 -0.032669608 -0.02149368 0.0006246088 0.046081264
-0.0424705 0.056601282 0.005115946 0.026367227 0.05361596 0.0006342434 0.027854614 0.06660599
-0.052830447 -0.00050584314 0.08065815 0.039948247 0.026454479 -0.013173443 -0.05423306 0.031803954
-0.082673825 -0.007769587 -0.0114814555 -0.044713456 0.040172428 -0.03917364 0.00013990977 0.009509665
0.06654667 -0.03938946 -0.0076742186 0.017010586 0.017687296 0.022176087 -0.0075630797 0.060560256
0.03618558 -0.011280765 0.022500519 -0.013576658 -0.021367522 0.03659017 0.0013143184 -0.059243754
-0.008740851 0.018909816 -0.021022288 0.028255567 0.036719933 -0.0062893783 -0.034520186 -0.012187053
0.012947573 -0.0029546362 0.0020750163 0.026308406 -0.010408424 -0.0032922004 -0.021059517 0.02766521
0.026623357 -0.06295265 0.018645342 0.02003618 0.025160918 0.043738138 0.049508218 -0.034923892
-0.010809031 -0.014980273 0.022859897 -0.0062390384 -0.0012509641 0.041304417 -0.0022459016 -0.0017467977
0.031542934 0.031892262 -0.00868185 0.0129440855 -0.027230173 -0.037009493 0.028548412 -0.0018931504
0.0054792156 0.0109931575 0.044059977 -0.026043013 -0.0693631 -0.07908144 -0.05653112 0.039027456
-0.05171453 0.022817155 0.0445622 -0.035851955 0.044502895 0.042086266 -0.054323107 0.057044905
-0.00021245911 -0.026964517 -0.00073982956 0.0020919535 0.00085825333 0.06491245 -0.03279006 0.0523106
-0.029497229 -0.0064406586 0.014606263 0.044137247 0.025651375 -0.060476813 0.0045112674 0.016093126
0.03870579 -0.0010195146 0.045807574 -0.015107947 0.013141898 -0.01592075 -0.042723294 -0.003170559
0.04164339 -0.010404253 0.03751434 -0.033907726 -0.034286197 -0.0015337755 -0.015253812 0.045874186
0.027512128 0.04773256 0.028611032 -0.0425861 0.020820256 0.027206453 -0.028661577 0.02480865
-0.018797671 -0.0523585 0.013743421 0.06778824 -0.015071795 0.017673796 -0.03562436 -0.0013419966
-0.010776282 -0.05411849 -0.018611113 0.04112302 -0.0417372 0.005522038 -0.010557136 0.026742088
0.058370575 0.055205297 -0.014992256 0.020947516 -0.033385787 0.0055806027 -0.00025266866 0.031410288
-0.057090998 -0.00559228 -0.0032130564 0.043189395 -0.023327954 -0.04658498 -0.052806403 -0.014497176
0.048750322 0.03567211 0.0073130843 -0.034827035 -0.021686343 0.030651212 -0.040938467 -0.043988332
0.011232199 0.018424317 0.0039829835 0.032960225 0.03102645 -0.031319987 0.043504607 -0.047717635
0.037693195 -0.042701118 0.032354455 0.04181957 0.00936642 0.027316334 -0.02324101 0.04888196
00000000: 0bb4 86bc 252c 963c 151f 2c3c 6129 d93c
00000010: f0e4 4ebd 5c48 06bd 3d95 6dbc 6732 2e3d
00000020: e03d 0a3d 946b 7cbd 3cbf 0f3c ecaa 4c3d
00000030: 2888 d53c fd85 ca3a 1da7 fd3c e844 53bd
00000040: 1015 3d3d c6b6 0cbd f4a4 33bc e603 0f3d
00000050: c51e b1bc 7d70 c93c bd75 ad3b fb2d eabc
00000060: 22f7 3abd b11d 8cbd 428d 343c aa28 1c3d
00000070: 75b5 5abd 50c8 eabc 6977 053c 3657 43bd
00000080: c833 5b3c 647f a8bc ce86 243d c268 123c
00000090: 1180 7e3c 9f11 5e3d 1b8c 533c e48f 32bd
000000a0: c9f9 a3b9 1504 0cbd ad4c f4bc d9e7 8d3d
000000b0: 94d1 163d 301f 8abd 1c0d 38ba 3a43 50bd
000000c0: 3656 853d c508 d83b 2433 0bbd 6da7 ba3c
000000d0: cead b8bc 6cc7 babc 5a07 49bd 3c45 1fbc
000000e0: 5595 1cbc 0c4a 21bd 8e9a 24bd 0329 663d
000000f0: 91d0 05bd 8413 b0bc c9bc 233a b5bf 3c3d
00000100: 8cf5 2dbd bfd6 673d aaa3 a73b 1500 d83c
00000110: 699c 5b3d 5b43 263a 5c2f e43c b968 883d
00000120: bd64 58bd 8f9a 04ba 1a30 a53d c6a0 233d
00000130: 10b7 d83c 6dd5 57bc 7c23 5ebd dd44 023d
00000140: e550 a9bd 0598 febb b71c 3cbc 7525 37bd
00000150: d88b 243d 8a74 20bd beb4 1239 6dce 1b3c
00000160: 9f49 883d d856 21bd 0378 fbbb c959 8b3c
00000170: f3e4 903c a0aa b53c b6d3 f7bb 080e 783d
00000180: 5537 143d f5d2 38bc 0253 b83c a270 5ebc
00000190: f10a afbc 93df 153d 3545 ac3a 94a9 72bd
000001a0: c935 0fbc c2e8 9a3c ef36 acbc 3878 e73c
000001b0: a467 163d 2117 cebb 0a65 0dbd 35ac 47bc
000001c0: 0f22 543c 92a2 41bb fffc 073b ba84 d73c
000001d0: 1888 2abc f5c1 57bb 0285 acbc 27a2 e23c
000001e0: 3a19 da3c 52ed 80bd 1ebe 983c ea22 a43c
000001f0: 451e ce3c c326 333d 21c9 4a3d 5b0c 0fbd
00000200: 5d18 31bc d26f 75bc ae44 bb3c d970 ccbb
00000210: 64f7 a3ba d22e 293d fa2f 13bb cef4 e4ba
00000220: 2a33 013d 76a1 023d 513e 0ebc 6e13 543c
00000230: d011 dfbc 4497 17bd 5cde e93c 9623 f8ba
00000240: fe8a b33b a51c 343c 3c78 343d 2858 d5bc
00000250: 3e0e 8ebd 73f5 a1bd 2d8d 67bd 41db 1f3d
00000260: 9dd2 53bd 0beb ba3c da86 363d 80d9 12bd
00000270: ab48 363d a662 2c3d e881 5ebd eba7 693d
00000280: 8fc7 5eb9 b1e4 dcbc 1ff1 41ba 2819 093b
00000290: 68fc 603a d2f0 843d df4e 06bd a443 563d
000002a0: 2ca4 f1bc 290c d3bb 1b4f 6f3c 42c9 343d
000002b0: d522 d23c 89b6 77bd 41d3 933b bbd5 833c
000002c0: f689 1e3d 3ca1 85ba b9a0 3b3d 5387 77bc
000002d0: 1e51 573c 3c6c 82bc 9ffe 2ebd 27c9 4fbb
000002e0: 4292 2a3d 9a76 2abc a3a8 193d d4e2 0abd
000002f0: af6f 0cbd f708 c9ba 20eb 79bc 92e6 3b3d
00000300: 1d61 e13c 3883 433d af61 ea3c c36e 2ebd
00000310: 3e8f aa3c 11e0 de3c afcb eabc 833b cb3c
00000320: 93fd 99bc de75 56bd 162c 613c 90d4 8a3d
00000330: b1ef 76bc a3c8 903c d9ea 11bd efe5 afba
00000340: 018f 30bc 5aab 5dbd 5576 98bc 9d70 283d
00000350: a0f4 2abd 36f2 b43b d6f7 2cbc 3912 db3c
00000360: fc15 6f3d f31e 623d 14a2 75bc 209a ab3c
00000370: 89bf 08bd 7ddd b63b 9d78 84b9 13a8 003d
00000380: 40d8 69bd 723f b7bb 2492 52bb 5de7 303d
00000390: 441a bfbc e4cf 3ebd 874b 58bd 9085 6dbc
000003a0: 6bae 473d eb1c 123d 99a2 ef3b cba6 0ebd
000003b0: 8fa7 b1bc 4018 fb3c 18af 27bd 1c2d 34bd
000003c0: 4207 383c 98ee 963c b083 823b 4d01 073d
000003d0: 2f2b fe3c 6349 00bd e331 323d 9173 43bd
000003e0: 2e64 1a3d 5ee7 2ebd 1b86 043d ff4a 2b3d
000003f0: 9d75 193c 81c6 df3c ee63 bebc 7338 483d

fc2.bias f4 [10]
0.050797865 0.04568554 -0.020642014 0.033155363 0.06335743 -0.04013602 0.050490566 0.05488994
0.035478894 0.055303153
00000000: 6c11 503d c320 3b3d 7119 a9bc ebcd 073d
00000010: 8ac1 813d ab65 24bd 32cf 4e3d 46d4 603d
00000020: 5152 113d 8f85 623d
